face-mask-detection.pth (torch, 36244 bytes, 26 tensors)

network.0.weight f4 [4, 3, 3, 3]
0	0x3db16af8	0.08662981
1	0x3d961697	0.073285274
2	0x3a813049	0.0009856309
3	0xbe154393	-0.14576559
4	0xbdf4a242	-0.11945011
5	0x3dc30d16	0.0952398
6	0xbddd8f50	-0.1081835
7	0x3dea02fe	0.11426352
8	0x3e0bf471	0.13667466
9	0x3db5e365	0.08881263
10	0x3d83d8b8	0.0643782
11	0x3d2e7059	0.04258761
12	0xbe17e722	-0.14834264
13	0xbd619086	-0.05506947
14	0x3d2d71a1	0.042344693
15	0x3e2f5302	0.17121509
16	0x3e200ff4	0.15631086
17	0xbe3e8a02	-0.18607333
18	0x3cafaa3d	0.02144348
19	0xbdf95bd4	-0.12175718
20	0xbe1aaf9d	-0.15106054
21	0xbe26283c	-0.16226286
22	0xbd5f2fa3	-0.05448879
23	0x3ccd7f1d	0.025085026
24	0x3e663805	0.22482307
25	0x3db8cea2	0.09023787
26	0xbdf8bca1	-0.12145353
27	0x3e6d775c	0.23190063
28	0x3e476472	0.1947191
29	0xbc21817a	-0.00985753
30	0x3d3465c7	0.044042375
31	0x3db642df	0.088994734
32	0xbe2902c5	-0.16504963
33	0x3d97b6fb	0.07407948
34	0xbe4509f0	-0.19242072
35	0x3dfc358b	0.123149
36	0x3e16fe19	0.14745368
37	0x3d913cfb	0.07091709
38	0x3d8ecce4	0.069726735
39	0x3ce1d2cb	0.027566334
40	0x3e0f5578	0.13997447
41	0x3d4df0c6	0.050278448
42	0xbcc5be17	-0.024138493
43	0x3dcce720	0.10005021
44	0x3da271da	0.07931872
45	0xbd5884c9	-0.05286101
46	0x3cdde81f	0.027088223
47	0x3dd9f9fc	0.10643384
48	0xbb8509c2	-0.004060001
49	0xbe21ae3e	-0.15789124
50	0xbdf29c96	-0.11846273
51	0xbc86d243	-0.016457682
52	0xbe38027e	-0.179697
53	0xbe1c9f05	-0.15295036
54	0x3d4971f5	0.049180944
55	0x3dba4a5a	0.09096213
56	0xbd4d620d	-0.050142337
57	0x3dca32f7	0.09873002
58	0xbe0b8a27	-0.1362692
59	0xbdacef7e	-0.08444117
60	0xbe07734b	-0.13227575
61	0xbd22bcdf	-0.039730903
62	0xbdcf67f2	-0.10127248
63	0x3e2ca3ed	0.16859408
64	0x3deb5f52	0.1149279
65	0x3deaf261	0.11472011
66	0xbdf725eb	-0.12067779
67	0x3b6d09e0	0.0036169216
68	0x3d9d554a	0.07682283
69	0x3e576b5c	0.21037048
70	0xbdaa034a	-0.083014086
71	0xbe16f46d	-0.14741679
72	0x3cf566e6	0.029956292
73	0xba8597a4	-0.0010192287
74	0x3e2f23c6	0.1710349
75	0xbe1e63c7	-0.1546775
76	0xbdfb0c8f	-0.12258255
77	0xbd615f8d	-0.055022765
78	0x3e009486	0.12556657
79	0xbde9d4a0	-0.11417508
80	0x3e23c4f6	0.15993103
81	0x3dad21ec	0.08453736
82	0xbdce05ab	-0.10059675
83	0xbe01c55d	-0.12672944
84	0xbdf90ca7	-0.12160616
85	0xbe34cf96	-0.17657313
86	0x3e233cc1	0.15941145
87	0x3c9d6c8c	0.019216798
88	0xbe3a4f6e	-0.18194363
89	0xbcdea984	-0.02718044
90	0x3cd2dd1b	0.025740197
91	0x3da9a19d	0.082827784
92	0xbe4c4836	-0.19949421
93	0xbe041cd4	-0.12901622
94	0xbddc51e3	-0.10757806
95	0xbe36e9d3	-0.17862634
96	0x3da92135	0.08258287
97	0xbe133bfc	-0.14378351
98	0xbd8f3ea1	-0.069943674
99	0xbddd246f	-0.10797965
100	0xbdffbbfe	-0.124870285
101	0x3e1c0234	0.15235215
102	0x3e02bdc4	0.12767702
103	0x3e2777fc	0.16354364
104	0xbd8a2a50	-0.06746352
105	0xbd2587c6	-0.040412687
106	0x3ddcf4fb	0.10788914
107	0x3e24db68	0.16099322

network.0.bias f4 [4]
0	0xbe2af498	-0.16694868
1	0x3df47464	0.11936262
2	0x3d00ee57	0.0314773
3	0x3dcd93ff	0.10037994

network.1.weight f4 [4]
0	0x3f846aa1	1.034504
1	0x3f7f27a5	0.9966987
2	0x3f7ad699	0.979837
3	0x3f7f1cc9	0.996533

network.1.bias f4 [4]
0	0xbc8d02f2	-0.017213318
1	0x3d0393bc	0.032123312
2	0x3d0db04d	0.03459196
3	0x3d0611c2	0.03273178

network.1.running_mean f4 [4]
0	0xbdea0e5a	-0.114285186
1	0x3edd24c0	0.431921
2	0x3cf0b97c	0.02938532
3	0xbe9e9be7	-0.3097832

network.1.running_var f4 [4]
0	0x3ae74bd5	0.0017646501
1	0x3cde1534	0.02710972
2	0x3b4670b8	0.0030279588
3	0x3d2cf3e4	0.04222478

network.4.weight f4 [8, 4, 3, 3]
0	0xbd738008	-0.059448272
1	0x3e26bb59	0.16282405
2	0xbce201bf	-0.027588723
3	0xbd165959	-0.036706302
4	0xbdd5d727	-0.10441428
5	0xbe008291	-0.12549807
6	0x3de817ca	0.113326624
7	0x3e3d81d7	0.18506561
8	0xbd404dbb	-0.04694913
9	0xbcb7605f	-0.02238482
10	0xbde2996e	-0.11064421
11	0xbdc1fe95	-0.09472386
12	0x3c23a9b0	0.009989187
13	0x3da683e5	0.08130626
14	0xbcfe91bb	-0.03107535
15	0xbdec63cb	-0.115424715
16	0x3d9b2e94	0.075772434
17	0x3daa3ee8	0.0831278
18	0xbd90ccf4	-0.07070342
19	0x3e0c4659	0.1369871
20	0xbded5151	-0.115877755
21	0x3d24cf59	0.040236805
22	0xbe132c44	-0.14372355
23	0xbc8c9f17	-0.017165704
24	0xbe06c713	-0.13161878
25	0xbd831ce2	-0.06401993
26	0x3cfe677b	0.031055203
27	0xbdd690c5	-0.10476831
28	0xbe022bc8	-0.12712014
29	0x3e009cf3	0.12559871
30	0xbd398f73	-0.04530282
31	0xbe16934d	-0.14704628
32	0x3decd568	0.115641415
33	0xbde7f0e8	-0.11325246
34	0x3db1c180	0.08679485
35	0xbc9eb889	-0.019375103
36	0x3d6a4a74	0.05719991
37	0xbe311703	-0.17293935
38	0xbe083d8d	-0.1330473
39	0xbb00ab49	-0.0019633344
40	0x3d03632e	0.032077007
41	0xbc2ff1fe	-0.010738848
42	0x3e11b092	0.14227512
43	0xbd907abf	-0.07054662
44	0x3df75f7c	0.12078759
45	0x3d199c52	0.037502594
46	0x3df26b18	0.11836833
47	0x3df44424	0.11927059
48	0xbd7542d1	-0.059878174
49	0xbe174350	-0.14771771
50	0x3d996fc1	0.074920185
51	0xbcac1432	-0.021005724
52	0xbda13603	-0.0787163
53	0xbde3f282	-0.11130239
54	0xbe2cfcf3	-0.16893367
55	0xbe02c4f4	-0.12770444
56	0x3cac0a0b	0.021000883
57	0xbe3a196e	-0.18173763
58	0x3df6ed84	0.12057021
59	0xbd952c61	-0.07283855
60	0x3e14cc7d	0.14531131
61	0x3dd3b541	0.10337306
62	0xbbcaecf6	-0.0061927987
63	0xbd0a62fa	-0.033785798
64	0x3ac4b937	0.0015008812
65	0xbdbc8277	-0.09204572
66	0xbe0fc7cb	-0.14041059
67	0xbe06ca2f	-0.13163064
68	0x3d3c7d91	0.046018187
69	0x3b1f89bb	0.0024343568
70	0x3ce224bc	0.027605407
71	0x3e04761f	0.12935685
72	0xbd782005	-0.06057741
73	0xbd319bd1	-0.04336149
74	0x3db491c6	0.088168666
75	0xbdf218ab	-0.11821111
76	0xbdb78a3e	-0.089619145
77	0x3d828992	0.06373896
78	0xbe3354e1	-0.17512847
79	0xbd63899c	-0.055551156
80	0xbe2409aa	-0.16019312
81	0x3b0f773f	0.0021891145
82	0x3d90229a	0.0703785
83	0x3da357ac	0.079757065
84	0xbcc8459b	-0.024447253
85	0x3cbd8e94	0.023139276
86	0xbd221bb3	-0.039577197
87	0x3d265ac0	0.04061389
88	0xbd80c4fb	-0.06287571
89	0xbda1a65d	-0.078930594
90	0xbd10a147	-0.035310056
91	0xbdb2e53c	-0.08735129
92	0x3e21dfd9	0.15808047
93	0xbdf1b0a0	-0.11801267
94	0x3dd48d45	0.103785075
95	0xbb5552ae	-0.0032550502
96	0x3bb50e8c	0.0055254158
97	0x3e12cf0b	0.14336793
98	0xbdacbea1	-0.08434797
99	0x3ce95ee1	0.028487625
100	0xbdd9e05b	-0.106384955
101	0x3e259c0a	0.16172805
102	0x3cd5685d	0.02605074
103	0xbda6438b	-0.081183515
104	0x3c39f136	0.011349013
105	0xbd0e6dec	-0.0347728
106	0x3e230254	0.15918857
107	0x3ddbd203	0.10733416
108	0xbd4c405f	-0.049866077
109	0xbd19d152	-0.03755314
110	0x3dbd0a7f	0.092305176
111	0x3d278f75	0.040908296
112	0x3d09c09e	0.03363096
113	0xbe37d935	-0.17953952
114	0xbc9525ad	-0.018206442
115	0xbdd117dd	-0.1020963
116	0x3ce3f052	0.027824555
117	0xbdc5de63	-0.096615575
118	0xbdc21a89	-0.094777174
119	0xbe0afb6b	-0.13572471
120	0x3d4eb3ee	0.050464563
121	0xbdfad9c3	-0.12248566
122	0xbdf10881	-0.117692
123	0xbd72db88	-0.059291393
124	0x3c3e3dc4	0.011611406
125	0xbdd0724a	-0.10178049
126	0x3e24a007	0.1607667
127	0x3d73f795	0.059562284
128	0x3e24dcff	0.16099928
129	0xbd76702c	-0.06016557
130	0xbab91475	-0.0014120477
131	0xbc6af50f	-0.014340653
132	0x3e1a3da7	0.15062581
133	0xbdcdbd64	-0.10045889
134	0x3d0745c6	0.033025526
135	0xbd9657fc	-0.073410004
136	0x3df5f24b	0.12009104
137	0xbdb63c63	-0.088982366
138	0x3dcf2641	0.10114718
139	0xbcee233a	-0.029069532
140	0xbe14b73b	-0.14523022
141	0xbc85aa06	-0.016316425
142	0xbe234daa	-0.15947595
143	0xbdd615c0	-0.10453367
144	0x3b983902	0.0046454677
145	0x3e3adc2d	0.18248053
146	0x3d8532a2	0.06503798
147	0xbde780a9	-0.11303837
148	0xbc95263b	-0.018206706
149	0xbd859cb0	-0.065240264
150	0x3e42b0b3	0.19012718
151	0xbdca102f	-0.09866368
152	0x3d328680	0.0435853
153	0xbcf1f877	-0.029537423
154	0xbd0e7da2	-0.03478778
155	0xbb527e29	-0.0032118654
156	0xbd3bde03	-0.045866024
157	0xbdf6d998	-0.120532215
158	0x3da98c32	0.08278693
159	0xbd1daf30	-0.03849715
160	0x3e0bb629	0.13643707
161	0xbd349f01	-0.04409695
162	0x3d5a9685	0.053366203
163	0x3e22b78d	0.15890332
164	0x3dd51761	0.1040485
165	0x3dc8bd2d	0.098017074
166	0x3dd82c11	0.1055528
167	0xbe189b60	-0.14903021
168	0xbe03a050	-0.12854123
169	0x3d51dd7f	0.051236626
170	0x3bfba60f	0.007679708
171	0xbe043507	-0.12910853
172	0x3cea4977	0.028599484
173	0xbdfd06a9	-0.12354786
174	0x3d15b724	0.03655161
175	0xbcdc7f1f	-0.026916085
176	0x3d004aa1	0.03132117
177	0x3c2cf581	0.01055658
178	0xbd9a068a	-0.075207785
179	0xbe2e6009	-0.17028822
180	0x3e034847	0.1282054
181	0x3e0facfc	0.14030832
182	0x3dd05cf3	0.10173979
183	0xbe263ef3	-0.1623495
184	0x3d0059f8	0.0313358
185	0x3d98724e	0.07443677
186	0x3da002a6	0.07813005
187	0x3d8c59e4	0.06853083
188	0xbe21e28a	-0.15809074
189	0xbd93ba96	-0.07213323
190	0x3bdaafe4	0.0066738
191	0x3e0b718a	0.1361753
192	0xbe0a02f8	-0.13477695
193	0xbde4ccfd	-0.11171911
194	0xbd79c951	-0.060983006
195	0x3d2d0c08	0.042247802
196	0x3cb0769b	0.02154093
197	0xbe2c4138	-0.16821754
198	0xbdac05da	-0.083995536
199	0xbe1a1192	-0.15045765
200	0xbe0eabf3	-0.13932781
201	0x3d0a2af1	0.03373236
202	0xbcb32cb4	-0.021871902
203	0xbcb1bcfa	-0.021696556
204	0x3de1d3e9	0.11026747
205	0xbd9d0f55	-0.0766894
206	0x3de7f555	0.1132609
207	0x3e0d7a49	0.1381618
208	0x3e1ec268	0.15503848
209	0x3c920f19	0.017829465
210	0x3d5b3c77	0.05352446
211	0x3cdc51ed	0.026894534
212	0xbdf8a82c	-0.12141451
213	0x3c3d0d48	0.011538811
214	0x3dc1680c	0.094436735
215	0xbb6ad656	-0.003583332
216	0x3bdc62b7	0.006725635
217	0xbd98c09e	-0.07458614
218	0x3ddaaeb1	0.10677851
219	0xbbe9f263	-0.0071394905
220	0x3d887be8	0.06664258
221	0x3dd7d8fd	0.10539434
222	0xbddec219	-0.10876865
223	0x3d8c7cb0	0.0685972
224	0x3e215b75	0.15757544
225	0xbd475354	-0.048663452
226	0xbe391038	-0.18072593
227	0xbe125ad2	-0.14292458
228	0x3e0e0d97	0.13872372
229	0xbdb53415	-0.088478245
230	0xbdd72b94	-0.10506359
231	0x3da7bdf7	0.0819053
232	0xbc783c88	-0.0151511505
233	0xbdc77813	-0.09739699
234	0x3c7b9aca	0.015356729
235	0xbddadbd0	-0.10686457
236	0x3e2fbcd3	0.17161874
237	0x3ca9f0c6	0.020744693
238	0x3da6b678	0.08140272
239	0x3d9acc9a	0.07558556
240	0x3d638d82	0.055554874
241	0x3e29f669	0.16597904
242	0xbe0f0203	-0.13965611
243	0x3dbf2709	0.09333617
244	0x3db0bb6f	0.086295
245	0x3e393ca8	0.18089545
246	0x3e15b18f	0.14618514
247	0xbe359e0e	-0.17736074
248	0x3cc4bf76	0.024017077
249	0xbdd6a79b	-0.10481187
250	0x3c9eadeb	0.01937004
251	0xbe0c5191	-0.1370299
252	0xbd01166a	-0.031515516
253	0x3df393c9	0.11893422
254	0x3c14f3ab	0.009091298
255	0x3d643717	0.0557166

network.4.bias f4 [8]
0	0x3e03d6f9	0.12874974
1	0xbda5feb0	-0.081052184
2	0xbe05e529	-0.13075699
3	0xbdd770e3	-0.10519578
4	0xbde4fb38	-0.11180729
5	0x3e0c1051	0.13678099
6	0x3c4b414c	0.012405705
7	0x3cd87f77	0.026427967

network.5.weight f4 [8]
0	0x3f863646	1.0485313
1	0x3f8154b7	1.0103978
2	0x3f72399e	0.94619167
3	0x3f80aa7a	1.0052025
4	0x3f7d512f	0.98952
5	0x3f77feca	0.9687315
6	0x3f7b7cd7	0.98237365
7	0x3f8137c4	1.0095143

network.5.bias f4 [8]
0	0x3cc1288f	0.02357891
1	0x3b9f5bfe	0.0048632612
2	0xbc01a1d7	-0.007912121
3	0x3c151141	0.009098352
4	0xbd34f7dd	-0.044181693
5	0x3ca2f285	0.019891033
6	0x3c29bf64	0.0103605725
7	0xbc476a55	-0.012171348

network.5.running_mean f4 [8]
0	0xbe08c587	-0.133566
1	0xbe981cb5	-0.29709402
2	0xbe632c49	-0.22184862
3	0xbf03c096	-0.5146574
4	0xbdfe99f6	-0.124317095
5	0x3e42cab1	0.19022633
6	0x3e06062e	0.13088295
7	0xbc0b82ca	-0.008515069

network.5.running_var f4 [8]
0	0x3da0a137	0.07843249
1	0x3d1e8621	0.038702134
2	0x3e38d766	0.18050918
3	0x3e3a8b41	0.18217184
4	0x3dfc6f4e	0.12325917
5	0x3e128421	0.14308216
6	0x3da3c169	0.079958744
7	0x3e6b8adf	0.23002194

network.8.weight f4 [16, 8, 3, 3]
0	0x3d88cac3	0.06679299
1	0x3d444770	0.04791969
2	0xbd201645	-0.039083738
3	0xbc0b93bb	-0.008519108
4	0xbca819be	-0.020520087
5	0x3bf9ba04	0.0076210517
6	0x3d854ff5	0.06509391
7	0xbe0e3e7a	-0.1389102
8	0xbd786d17	-0.06065091
9	0x3d6ade8d	0.057341147
10	0x3dc46588	0.09589678
11	0xbdd5df63	-0.10442998
12	0x3d0e9db8	0.03481838
13	0xbcabe6e3	-0.020984119
14	0xbdd40280	-0.10352039
15	0x3dab1eb7	0.08355468
16	0x3d894f0d	0.06704531
17	0xbd623046	-0.05522182
18	0x3d0a5ead	0.033781696
19	0xbce0ce41	-0.0274421
20	0x3da2450c	0.07923326
21	0x3d8211a7	0.06351023
22	0xbd5d4e5f	-0.05402982
23	0xbb9986a6	-0.004685241
24	0x3dc552f8	0.09634966
25	0x3d54a246	0.05191257
26	0x3dfed8ea	0.12443717
27	0x3d341531	0.043965522
28	0xbd4d06f3	-0.050055455
29	0xbc3311f6	-0.010929575
30	0xbdf38a4c	-0.118916124
31	0xbd6a186f	-0.057152208
32	0xbd692f53	-0.056929898
33	0xbd01791b	-0.031609636
34	0xbda79e55	-0.08184496
35	0xbd03981f	-0.032127496
36	0x3c1e739e	0.00967112
37	0x39f3371e	0.00046389637
38	0x3dead0ba	0.11465593
39	0x3d929415	0.07157151
40	0xbd04ba51	-0.032404248
41	0xbbc2868e	-0.0059364503
42	0x3c7b3510	0.015332475
43	0xbc86d581	-0.016459228
44	0x3dfe8454	0.12427583
45	0xbdf834c1	-0.12119437
46	0x3bf572e1	0.0074905013
47	0x3dbd9b41	0.09258128
48	0xbcbefa69	-0.023312764
49	0x3c7354f6	0.014851799
50	0xbd902bb5	-0.070395865
51	0xbd75b815	-0.059990007
52	0x3d60208d	0.054718543
53	0x3da14c83	0.078759216
54	0xbd303081	-0.043015007
55	0x3d5f380a	0.054496802
56	0x3db0abee	0.08626543
57	0xbe056ffc	-0.13031
58	0xbda1b51e	-0.078958735
59	0x3d878ffd	0.066192605
60	0xbe01a2b5	-0.12659724
61	0xbb0eb6bc	-0.0021776399
62	0xbd57e2a2	-0.05270637
63	0xbd9e9c79	-0.077446885
64	0xbdbc7673	-0.0920228
65	0xbc678665	-0.014131163
66	0xbd0499cc	-0.032373235
67	0xbd95d788	-0.073165
68	0xbc5317df	-0.012884109
69	0x3c5817ca	0.0131892655
70	0x3dc1387e	0.09434603
71	0x3d377b36	0.044795237
72	0x3cf24432	0.029573534
73	0xbd0ecee4	-0.034865275
74	0xbd7986b8	-0.060919493
75	0x3c3c6725	0.011499201
76	0xbca68fda	-0.020332266
77	0x3cfc199a	0.030773927
78	0x3cbfdf69	0.02342196
79	0x3d9013ce	0.070350274
80	0xbdc682ab	-0.09692892
81	0x3d8f604e	0.070007905
82	0xbc2b2f8a	-0.010448346
83	0x3d6a4363	0.05719317
84	0x3c9d8981	0.019230606
85	0x3dea0584	0.11426833
86	0x3d95ad89	0.0730849
87	0x3ce5664b	0.028002879
88	0xbca2bf99	-0.019866752
89	0xbdbfea5e	-0.09370874
90	0xbdaa3980	-0.083117485
91	0xbdc97d76	-0.09838383
92	0x3b175b18	0.0023095068
93	0x3cc861c8	0.024460688
94	0xbdddb9a2	-0.10826422
95	0xbd908cd2	-0.07058109
96	0x3c15f7a0	0.009153277
97	0xbb3e1e5a	-0.002900979
98	0xbc2da756	-0.010598978
99	0xbe0a1bdd	-0.13487191
100	0xbdbc6399	-0.09198684
101	0xbd53db93	-0.051723074
102	0xbd195f28	-0.037444264
103	0xbc5885c2	-0.013215484
104	0xbdaa0731	-0.08302153
105	0x3d819d36	0.06328814
106	0xbb737652	-0.0037149382
107	0xbd5a1767	-0.053244974
108	0x3d597c3b	0.05309699
109	0xbe03d3ab	-0.12873714
110	0x3a6db89f	0.0009068343
111	0xbde14125	-0.109987535
112	0x3c905748	0.017619744
113	0xbd43dc5a	-0.047817566
114	0xbd6d2ecf	-0.05790597
115	0xbdaf613f	-0.0856347
116	0x3cc6a6b2	0.024249408
117	0xbdc521fa	-0.09625621
118	0x3d3ddad5	0.046351273
119	0xbc0d437a	-0.008622045
120	0x3d3516b2	0.044211097
121	0x3d207683	0.03917552
122	0x3d4656d3	0.048422646
123	0xbc33a563	-0.010964724
124	0xbd59660e	-0.053075843
125	0xbcb3c757	-0.021945639
126	0x3d1e5847	0.038658407
127	0xbd892b1a	-0.06697674
128	0xbd60ab5a	-0.054850914
129	0x3dbda094	0.092591435
130	0x3c842132	0.01612911
131	0x3bdcf82d	0.006743452
132	0x3d76539f	0.06013834
133	0xbcdc50fe	-0.026894089
134	0x3d9c580d	0.07633982
135	0xbdee70d1	-0.11642612
136	0x3c39357c	0.011304256
137	0x3ca27a79	0.01983379
138	0x3db88908	0.09010512
139	0x3da68ef0	0.08132732
140	0xbd54d9b6	-0.051965438
141	0xbdd40031	-0.10351599
142	0xbdef38df	-0.11680769
143	0xbd4007a1	-0.046882275
144	0xbe1ac955	-0.15115865
145	0x3ceb6d44	0.028738625
146	0xbdf1cbfe	-0.118064865
147	0xbdc7c5a1	-0.097544916
148	0xbaf5bc63	-0.001874816
149	0xbdff52d3	-0.12466969
150	0xbd32385a	-0.043510772
151	0xbd9f1dcd	-0.07769356
152	0xbe05cdb1	-0.13066746
153	0x3d1696f1	0.036765043
154	0xbd9b08d9	-0.07570047
155	0x3cf933f5	0.030420283
156	0xbd55dc55	-0.052212078
157	0xbd8e370b	-0.06944092
158	0xbd7483d1	-0.059696022
159	0xbe13e734	-0.14443666
160	0xbd8f47a6	-0.06996088
161	0x3d922b11	0.071371205
162	0xbc9fc357	-0.019502325
163	0xbd4b3aeb	-0.049616735
164	0x3c2d46c4	0.010575954
165	0xbe0cad20	-0.13737917
166	0xbd8a7179	-0.067599244
167	0x3d09c9dc	0.033639774
168	0x3d446483	0.047947418
169	0xbda56dee	-0.08077608
170	0x3c2c58c4	0.01051921
171	0xbcc85b1f	-0.024457512
172	0x3d03cf4a	0.032180108
173	0xbdb25d8a	-0.087092474
174	0x3da78ff1	0.081817515
175	0x3dd668de	0.104692206
176	0x3d928ecb	0.07156142
177	0x3d6fb883	0.058525573
178	0xbd69c7d1	-0.057075325
179	0x3e1a73c8	0.1508323
180	0xbd1ed4e0	-0.038777232
181	0x3dcfcfb2	0.101470366
182	0xbd2fe567	-0.042943384
183	0x3dca1f6f	0.09869277
184	0x3d69f43c	0.057117686
185	0xbdf3d9ca	-0.11906774
186	0xbcb455eb	-0.022013625
187	0x3d161e1b	0.036649805
188	0x3cf24e87	0.02957846
189	0xbd291360	-0.041278243
190	0xbdbfb38d	-0.093604185
191	0x3d58b450	0.052906334
192	0x3d0a7bc1	0.033809427
193	0x3dacaa0d	0.08430872
194	0xbd81e5b6	-0.06342642
195	0xbcd99b0f	-0.026563196
196	0x3d1265da	0.035741664
197	0x3c2ce64a	0.010552952
198	0x3cf28e4a	0.029608864
199	0x3d1f21fc	0.03885077
200	0xbd8c5636	-0.06852381
201	0xbdc8121e	-0.097690806
202	0x3c7e87a8	0.015535273
203	0xbc74d8ef	-0.014944299
204	0x3d90c67f	0.0706911
205	0x3da1dabb	0.07903048
206	0xba914243	-0.001108237
207	0x3c62c854	0.013841707
208	0xbda7524c	-0.08169994
209	0xbca36a19	-0.019948052
210	0xbdcddc88	-0.100518286
211	0xbe03a675	-0.12856467
212	0xbd9afdbc	-0.07567927
213	0xbc1be56e	-0.0095151495
214	0x3c960d6e	0.01831695
215	0xbd8bad4b	-0.068201624
216	0x3c4b2e40	0.012401164
217	0xbd0cab6e	-0.034343176
218	0xbd6c1704	-0.057639137
219	0x3d731221	0.05934346
220	0xbcb84835	-0.022495368
221	0xbd9bc8c4	-0.076066524
222	0xbc589a87	-0.013220436
223	0xbde70b33	-0.11281433
224	0xbdbc24be	-0.091866955
225	0xbd85c1b8	-0.065310895
226	0xbc1de3ef	-0.009636863
227	0x3d3f61d4	0.046724156
228	0x3d945b11	0.07243932
229	0xbc82f8b6	-0.015987735
230	0xbd9ce0a8	-0.07660037
231	0xbd022b56	-0.03177961
232	0x3df474be	0.11936329
233	0x3db63d5b	0.088984214
234	0x3d814af9	0.06313128
235	0xbd9682c8	-0.07349163
236	0x3dee9efa	0.11651416
237	0xbd4c5a98	-0.049891084
238	0x3e0696f0	0.13143516
239	0xbd163aa0	-0.036677003
240	0xbd6ec427	-0.058292534
241	0xbd5c4cd0	-0.05378419
242	0xbd9f03f1	-0.07764424
243	0x3d00d435	0.031452376
244	0xbbd5a4ee	-0.0065199053
245	0x3d2224d4	0.039585903
246	0x3d8cb3c5	0.06870226
247	0x3d60125d	0.054705013
248	0x3def6a6e	0.11690222
249	0xbd96b2a3	-0.07358291
250	0x3d8e88db	0.06959697
251	0xbc9d5427	-0.019205166
252	0x3d118ad4	0.035532787
253	0x3c6cdce9	0.014456966
254	0x3daf08fe	0.08546637
255	0xbdb6286c	-0.088944286

network.8.bias f4 [16]
0	0xbc01bc26	-0.007918393
1	0xbd8ee57d	-0.06977365
2	0x3dc706ba	0.0971808
3	0x3cf73fb6	0.030181747
4	0xbce32ec7	-0.027732266
5	0xbdbfe689	-0.09370143
6	0xbd7e52a2	-0.062090524
7	0x3d01dc2e	0.03170412
8	0xbdaf039e	-0.08545612
9	0xbde6e6db	-0.11274501
10	0xbdbec9ea	-0.09315856
11	0x3d92af92	0.07162394
12	0xbd948023	-0.07251003
13	0x3c809b34	0.015699007
14	0x3d9ffe9a	0.07812233
15	0xbd8f60a2	-0.07000853

network.9.weight f4 [16]
0	0x3f81d664	1.0143552
1	0x3f86dfdc	1.0537066
2	0x3f8023e2	1.001095
3	0x3f821ce2	1.0165064
4	0x3f8ac207	1.0840462
5	0x3f7ae583	0.9800646
6	0x3f83df59	1.0302535
7	0x3f7aee96	0.98020303
8	0x3f86b483	1.0523838
9	0x3f7acd42	0.9796945
10	0x3f86b9fb	1.0525507
11	0x3f74c6cc	0.9561584
12	0x3f789c27	0.9711327
13	0x3f7002e5	0.93754417
14	0x3f82e9b0	1.0227566
15	0x3f80eaf8	1.0071707

network.9.bias f4 [16]
0	0xbd62bf55	-0.05535825
1	0x3c040fd7	0.008060417
2	0xbd337152	-0.043809243
3	0xbcddc7bd	-0.027072782
4	0x3d8befb5	0.0683283
5	0xbcd32f85	-0.025779495
6	0xbd2a65ab	-0.041600864
7	0x3b314e02	0.0027054553
8	0xbbbaaa43	-0.0056965663
9	0xbd3e6471	-0.046482507
10	0x3c84dcdb	0.016218593
11	0xbdb3fd2b	-0.08788522
12	0xbd0596ea	-0.032614626
13	0xbb8eca38	-0.0043576024
14	0xb94dd320	-0.00019628974
15	0x3d1af87d	0.037834633

network.9.running_mean f4 [16]
0	0xbdf195b4	-0.11796132
1	0xbefcc3bb	-0.4936808
2	0xbf196ccd	-0.5993164
3	0xbe800002	-0.25000006
4	0xbf4e868e	-0.80674064
5	0xbe7d6172	-0.24744204
6	0xbdca5249	-0.09878976
7	0x3f9518cf	1.1648196
8	0xbeb77717	-0.35833046
9	0x3f1409b7	0.57827324
10	0xbeb6eb7c	-0.35726535
11	0xbe21f9dc	-0.1581797
12	0xbe53250a	-0.20619598
13	0x3ed2a4eb	0.41141447
14	0xbee220ce	-0.44165653
15	0xbf1bcbfa	-0.6085812

network.9.running_var f4 [16]
0	0x3e2058e6	0.15658912
1	0x3e7fa2ff	0.24964522
2	0x3e89da80	0.26924515
3	0x3e0cf907	0.13766871
4	0x3e85d3f6	0.26138276
5	0x3dedeff6	0.116180345
6	0x3e0e93bd	0.13923545
7	0x3eb139c9	0.346144
8	0x3d8a051c	0.06739256
9	0x3e3d425c	0.18482345
10	0x3dce25b9	0.10065789
11	0x3db64f97	0.08901899
12	0x3e12e3e7	0.1434475
13	0x3e49f283	0.19721417
14	0x3e21c510	0.1579783
15	0x3e55aa03	0.20865636

network.12.weight f4 [32, 16, 3, 3]
0	0xbb4ec8e5	-0.0031552848
1	0x3d776c78	0.06040618
2	0x3d8d00f7	0.0688495
3	0xbd283e3d	-0.04107498
4	0x3cd9288e	0.026508596
5	0x3c339988	0.010961898
6	0x3cfe93cd	0.031076336
7	0xbd662e83	-0.0561967
8	0xbd6d8815	-0.057991106
9	0xbe02c726	-0.12771282
10	0x3c9b3339	0.018945323
11	0x3cfe9b1f	0.031079827
12	0xbe0c87e3	-0.13723712
13	0x3d8a874e	0.067640886
14	0x3bb30c42	0.0054641077
15	0x3dae2a4c	0.08504161
16	0x3c18fbf8	0.009337418
17	0x3ca3505a	0.019935776
18	0xbdad9045	-0.08474783
19	0x3cd799c9	0.026318448
20	0xbd6a90f0	-0.05726713
21	0x3d232d74	0.03983827
22	0x3c9d7a2d	0.019223297
23	0xbc0ec610	-0.008714214
24	0xbbb9f691	-0.005675145
25	0xb9db1e42	-0.0004179348
26	0xbd7e743d	-0.062122572
27	0x3daf2900	0.08552742
28	0xbcf40e8c	-0.029792093
29	0xbcf5c62e	-0.030001726
30	0xbd4e305f	-0.0503391
31	0xbbde96c6	-0.006792876
32	0x3d9d485a	0.076798156
33	0xbdb7922f	-0.08963429
34	0x3d26258e	0.04056316
35	0xbcc7c5b7	-0.02438627
36	0x3d79a0ea	0.060944475
37	0x3d826a20	0.06367898
38	0x3dbdfae8	0.09276372
39	0xbd36b1a9	-0.044603024
40	0x3d3a7254	0.045519188
41	0x3a043b24	0.0005044213
42	0xbd7d729c	-0.06187688
43	0xbceb020c	-0.0286875
44	0x3ca6081d	0.02026754
45	0xbdaef6f5	-0.08543197
46	0x3d4d0dac	0.050061867
47	0x3d683335	0.05668946
48	0x3c9f2914	0.019428767
49	0x3deedc26	0.11663084
50	0x3dce6c9b	0.100793086
51	0x3da60111	0.08105672
52	0xbba1419c	-0.0049211513
53	0xbc59af4c	-0.013286423
54	0x3ce13a76	0.027493697
55	0xbba79318	-0.0051139705
56	0x3d68c631	0.056829635
57	0xbd28ba80	-0.041193485
58	0x3c842f38	0.016135797
59	0x3cc75edb	0.024337223
60	0xbd41a90c	-0.047280356
61	0xbb610e4b	-0.0034340795
62	0xbd68ae2e	-0.056806736
63	0xbd98d1b4	-0.07461873
64	0xbc089161	-0.008335442
65	0x3a8af42e	0.0010601336
66	0x3ae239d2	0.0017259663
67	0xbcb235b9	-0.021754133
68	0x3c5e6fd1	0.013576464
69	0xbd3fdf93	-0.046844076
70	0x3d05eaf3	0.03269477
71	0x3c46eb8d	0.012141121
72	0xbd70920b	-0.058733027
73	0x3d8cc974	0.06874362
74	0x3cff38a0	0.03115493
75	0xbce09062	-0.027412597
76	0x3d5d56dd	0.054037917
77	0x3d911e8c	0.070859045
78	0x3cfa935d	0.030587846
79	0x3cbec8b0	0.023289055
80	0xbd4b1353	-0.049578976
81	0xbccfecf4	-0.025381543
82	0xbd320d0d	-0.043469477
83	0x3d8c1b5d	0.06841157
84	0x3c990c0d	0.018682504
85	0xbce9b34c	-0.028527878
86	0xbc5bad9e	-0.013408093
87	0xbd3a13b8	-0.04542896
88	0x3d98dcee	0.07464014
89	0x3d24389b	0.040093046
90	0xbcb4853b	-0.022036185
91	0xbd9190e5	-0.071077146
92	0xbd6b0b87	-0.05738404
93	0x3d0047cb	0.031318467
94	0x3c5f2b39	0.013621145
95	0x3d4be9b3	0.04978342
96	0x3d950e7c	0.07278153
97	0xbc5a4eed	-0.013324481
98	0xbd5ebd5d	-0.05437981
99	0xbd570c6f	-0.052502092
100	0xbd57e606	-0.0527096
101	0xbce37cd6	-0.027769487
102	0xbc652d5f	-0.013987868
103	0xbca39983	-0.019970661
104	0x3d8fbdd8	0.07018632
105	0xbca49e2d	-0.020094955
106	0xbb903837	-0.0044012326
107	0x3d24ba8b	0.040216964
108	0xbd4b87c1	-0.049690012
109	0xbca634ea	-0.020288903
110	0xbc8745f5	-0.01651285
111	0x3c9fa9e3	0.019490188
112	0x3d873cd0	0.06603396
113	0x3d614260	0.05499494
114	0x3d0e7627	0.034780648
115	0x3d68216f	0.05667251
116	0xbc454576	-0.012040487
117	0xbd8033a0	-0.06259847
118	0x3d6fb656	0.0585235
119	0xbd111665	-0.035421748
120	0x3cc3ad87	0.023886455
121	0x3d27f358	0.041003555
122	0x3ce55c5f	0.027998148
123	0x3d5619f7	0.052270856
124	0x3d63572e	0.055503063
125	0xbcfa4233	-0.030549144
126	0x3d19abf1	0.03751749
127	0x3d5c4301	0.053774837
128	0xbcf412e4	-0.029794164
129	0x3d315eab	0.043303173
130	0x3d3f556d	0.046712328
131	0x3d4895d6	0.04897102
132	0x3d2a040d	0.04150777
133	0xbbb03cd3	-0.0053783446
134	0xbd4ed310	-0.050494254
135	0xbdec32da	-0.11533137
136	0xbd6f85a5	-0.058477063
137	0x3d6432ad	0.05571239
138	0x3d8a6ea4	0.06759384
139	0x3db0581b	0.08610555
140	0x3d63223d	0.055452574
141	0xbc722af8	-0.014780752
142	0xbd5328c1	-0.051552538
143	0xbbc3a206	-0.0059702424
144	0xbd4d4ad7	-0.0501202
145	0x3d0faffe	0.03507995
146	0xbd8a1d30	-0.06743848
147	0x3bff29e4	0.007786976
148	0x3d9b3756	0.07578914
149	0x3d88a2e9	0.06671698
150	0xbc24fd86	-0.01007021
151	0xbd421676	-0.0473847
152	0x3d11c781	0.035590652
153	0x3e033931	0.12814786
154	0x3dbf2f9c	0.09335253
155	0x3dd69f21	0.1047957
156	0x3db7097a	0.089373544
157	0x3d27d7ff	0.040977474
158	0x3d1823ed	0.037143636
159	0xbd9ecbce	-0.077537164
160	0x3d6b82da	0.057497837
161	0xb783bba4	-1.5703794e-05
162	0x3cac346b	0.021021089
163	0x3d493ce0	0.04913032
164	0xbb098f35	-0.00209899
165	0xbdb2c8f6	-0.087297365
166	0x3d428be5	0.047496695
167	0xbd66b893	-0.056328367
168	0x3d08fcfa	0.033444382
169	0x3d3a721f	0.04551899
170	0xbc19d57a	-0.009389276
171	0xbd4bdd22	-0.049771436
172	0xbd6963bb	-0.056979876
173	0xbced8170	-0.028992385
174	0x3d7ffb5d	0.062495578
175	0x3d97f15e	0.07419084
176	0x3d7a2be0	0.061077
177	0x3d1bd5e8	0.038045794
178	0xbd04fcf2	-0.03246779
179	0x3d2e181f	0.042503472
180	0x3d81a2c9	0.06329877
181	0xbd31147b	-0.043232422
182	0x3dbc221a	0.09186192
183	0xbcb10dc5	-0.021613011
184	0xbd522352	-0.051303215
185	0x3c57ffb3	0.013183522
186	0xbd831804	-0.06401065
187	0xbc2fb899	-0.010725164
188	0xbd192474	-0.03738828
189	0xbc3fe234	-0.011711646
190	0x3d98c63f	0.074596874
191	0x3dadf574	0.08494082
192	0xbb0c514b	-0.002141076
193	0xbd202bfe	-0.039104454
194	0x3d13d81e	0.036094777
195	0xbd30e29d	-0.043184865
196	0xbd8aadab	-0.06771406
197	0xbd962345	-0.07330946
198	0xbd288f80	-0.041152477
199	0xbd8a9fa3	-0.067687295
200	0xbd5a76d8	-0.053335994
201	0xbd9ca6a9	-0.076489754
202	0x3c798921	0.015230448
203	0xbd90535e	-0.07047151
204	0x3cf71bef	0.030164687
205	0xbd51ae83	-0.051191818
206	0x3d981ecc	0.07427749
207	0x3ce59925	0.028027127
208	0xbcc839b6	-0.024441581
209	0xbd762648	-0.0600951
210	0x3c1db2ba	0.009625131
211	0x3ca32053	0.019912874
212	0x3d6394fb	0.055562
213	0x3d9ef8aa	0.07762273
214	0x3c86c0d7	0.016449375
215	0x3d065614	0.032796934
216	0xbd2bea1a	-0.041971304
217	0x3d83a847	0.06428581
218	0xbc8f680e	-0.017505672
219	0x3d12a218	0.035799116
220	0x3d5c0cc1	0.0537231
221	0x3d34d59a	0.04414902
222	0xbd409044	-0.047012582
223	0x3cd69a3a	0.026196588
224	0x3ca5f84a	0.020259995
225	0x3aaee0a3	0.0013342093
226	0xbce67889	-0.028133648
227	0xbdab41c8	-0.08362156
228	0xbbd550e6	-0.006509888
229	0xbcc9a0ed	-0.024612868
230	0x3b10e22f	0.0022107472
231	0xbd49efc1	-0.049300913
232	0xbd22308e	-0.039597087
233	0xbd34f61a	-0.044180013
234	0x3daaad2a	0.0833381
235	0xbcd17ccc	-0.025572203
236	0xbbcfda60	-0.006343171
237	0xbdf05f9e	-0.117369875
238	0xbdcde2f5	-0.10053054
239	0xbd02f016	-0.031967245
240	0xbc5f1373	-0.013615477
241	0x3c948ed5	0.018134514
242	0xbcb10a9e	-0.021611508
243	0xbcde0304	-0.027101047
244	0x3cec1baf	0.028821794
245	0xbcb4b975	-0.022061089
246	0x3d197cb8	0.037472457
247	0xbc58f6be	-0.013242422
248	0xbd670421	-0.056400422
249	0x3cfc73be	0.030816909
250	0x3d5b5b20	0.0535537
251	0x3cedd6f5	0.029033164
252	0xbcad3f56	-0.021148365
253	0xbd886aa9	-0.06660969
254	0xbd819c52	-0.06328644
255	0xbc3554ad	-0.011067552

network.12.bias f4 [32]
0	0x3d9d6679	0.07685561
1	0x3b2360a4	0.0024929428
2	0x3d64a0f1	0.05581755
3	0xbcb17cd4	-0.021665968
4	0x3d8beb77	0.06832021
5	0x3d82af30	0.063810706
6	0x3d212a7e	0.039347164
7	0xbd9d1f19	-0.07671947
8	0xbcc44d41	-0.023962619
9	0xbd88b6f3	-0.0667552
10	0x3d11249f	0.035435315
11	0x3cc5b0ff	0.02413225
12	0xbd838d14	-0.06423393
13	0xbcadbfa1	-0.02120954
14	0xbb755ba7	-0.0037438662
15	0x3c91dbec	0.017805062
16	0x3cb8c0a1	0.02255279
17	0xbd92419e	-0.07141422
18	0x3c627b38	0.013823323
19	0x3cb0ed38	0.02159749
20	0xbd9a37a7	-0.07530146
21	0x3c7f2b79	0.0155743295
22	0xbd87bd9d	-0.06627963
23	0xbd6ababc	-0.05730699
24	0xbd9c7c89	-0.07640941
25	0x3d928a3e	0.07155274
26	0xbc9d5755	-0.019206682
27	0xbd99f31d	-0.07517073
28	0x3d77beb7	0.060484614
29	0xbd7f2079	-0.062286828
30	0x3cda02fe	0.026612755
31	0xbd135927	-0.035973694

network.13.weight f4 [32]
0	0x3f816e7b	1.0111841
1	0x3f845320	1.0337868
2	0x3f815133	1.0102905
3	0x3f843b06	1.0330513
4	0x3f801101	1.0005189
5	0x3f8721bb	1.0557169
6	0x3f85d91c	1.0456882
7	0x3f870c5b	1.0550646
8	0x3f81fd55	1.0155436
9	0x3f898419	1.0743438
10	0x3f854e09	1.041444
11	0x3f7e4882	0.9932939
12	0x3f82d0ad	1.0219933
13	0x3f805bfa	1.0028069
14	0x3f84ba9d	1.036945
15	0x3f83d428	1.029912
16	0x3f89d59f	1.0768317
17	0x3f837a9a	1.027179
18	0x3f84ad4f	1.036539
19	0x3f8390b6	1.0278537
20	0x3f7f6230	0.997592
21	0x3f868f45	1.0512472
22	0x3f86798f	1.0505847
23	0x3f868a95	1.0511042
24	0x3f852f04	1.0404973
25	0x3f897c2b	1.0741018
26	0x3f8567bd	1.0422283
27	0x3f874bab	1.0569967
28	0x3f847657	1.0348614
29	0x3f869dcd	1.0516907
30	0x3f8402eb	1.031339
31	0x3f83b53e	1.0289686

network.13.bias f4 [32]
0	0xbb06ee31	-0.002058875
1	0xbc3f12b0	-0.01166217
2	0xbbb756a3	-0.0055950447
3	0x3bbfc22a	0.0058520036
4	0xbbc48624	-0.005997436
5	0x3bf49f80	0.007465303
6	0x3b7f94e4	0.0038998658
7	0x3c1a3d16	0.009413978
8	0xbbc4965c	-0.0059993695
9	0x3be2e479	0.0069242087
10	0x3be5e1ab	0.007015427
11	0xbb6652c6	-0.0035144552
12	0xbb9d6220	-0.004802957
13	0xbbb4b79a	-0.005515051
14	0xbc283d07	-0.010268456
15	0xba9501bc	-0.0011368315
16	0x3c424a79	0.011858576
17	0xbc00fa59	-0.0078721875
18	0xbd1f69a1	-0.038919095
19	0xbb8c29de	-0.004277452
20	0xbbafad4f	-0.005361236
21	0x3c08e577	0.00835549
22	0xbb21e79e	-0.0024704705
23	0x3c004405	0.007828717
24	0x3c0b2bb4	0.008494306
25	0x3c2dc14a	0.010605166
26	0x3c0ba642	0.008523526
27	0x3bd84c91	0.0066009243
28	0x3bbc5111	0.0057469686
29	0x3bf5cae6	0.007500994
30	0xbca6efd4	-0.02037803
31	0xbc3501e8	-0.011047818

network.13.running_mean f4 [32]
0	0x3f0da936	0.5533632
1	0x3dfcbd62	0.123408094
2	0x3e23f174	0.16010076
3	0x3eb14c22	0.34628397
4	0xbeb63bea	-0.35592586
5	0x3dfea0b8	0.124329984
6	0x3e055f8e	0.13024732
7	0xbdf8f0fd	-0.1215534
8	0xbe0e24d2	-0.13881233
9	0x3dde0a38	0.10841793
10	0x3e3f3582	0.18672755
11	0x3e04a350	0.12952924
12	0xbbfedced	-0.0077778012
13	0xbe20899c	-0.15677494
14	0x3cd4ad24	0.025961466
15	0xbc7ef7ab	-0.015561978
16	0x3e3f3dc0	0.186759
17	0xbe257e0d	-0.16161366
18	0x3e94eacb	0.29085383
19	0x3d1b4997	0.037911978
20	0xbf20638f	-0.62651914
21	0x3e1433ca	0.14472881
22	0xbd9bd90f	-0.0760976
23	0x3ea9c438	0.33157516
24	0xbdb1e442	-0.08686115
25	0xbd9db753	-0.07700982
26	0xbe3d4710	-0.1848414
27	0xbd0c70f3	-0.034287404
28	0x3bf7b071	0.0075588753
29	0x3cdde512	0.027086768
30	0xbc1b29e0	-0.009470433
31	0xbe0f30df	-0.13983487

network.13.running_var f4 [32]
0	0x3e3ac0f4	0.18237668
1	0x3e1dd64e	0.15413782
2	0x3e26c4ba	0.16285983
3	0x3e2ff2f7	0.17182527
4	0x3dfc73c6	0.123267695
5	0x3e3dc67f	0.18532752
6	0x3e907ff2	0.28222615
7	0x3e1d62f0	0.15369773
8	0x3e5d4277	0.21607386
9	0x3e132fae	0.14373657
10	0x3dda7e57	0.10668629
11	0x3e417d5a	0.18895474
12	0x3e203c06	0.15647897
13	0x3e114fb3	0.14190559
14	0x3e314ff5	0.17315657
15	0x3e6376c9	0.22213282
16	0x3e84ad8a	0.2591365
17	0x3da215eb	0.07914337
18	0x3e8ca447	0.27469084
19	0x3ebc4eea	0.36778957
20	0x3e9327c2	0.2874127
21	0x3e21ab3a	0.15787974
22	0x3dde6af8	0.108602464
23	0x3e26d6ac	0.16292828
24	0x3e81d402	0.25357062
25	0x3e62b85b	0.22140639
26	0x3e4fdcc9	0.20299067
27	0x3dbd9794	0.09257427
28	0x3dff46c8	0.12464672
29	0x3e14162c	0.14461583
30	0x3e388c23	0.18022208
31	0x3e3ee361	0.18641426

network.18.weight f4 [2, 32]
0	0x3d5905bb	0.05298398
1	0x3ccef091	0.025261195
2	0xbe0f0ea1	-0.13970424
3	0x3e3844ae	0.17994949
4	0xbe247056	-0.16058478
5	0x3e0dc373	0.13844089
6	0x3e4bed9b	0.19914858
7	0xbd28b9fb	-0.04119299
8	0xbe21cde3	-0.15801196
9	0x3e06ce3a	0.13164607
10	0x3e184670	0.1487062
11	0x3cc66132	0.024216268
12	0xbdb02b02	-0.08601953
13	0x3c968653	0.018374598
14	0xbce78f61	-0.02826661
15	0xbdf2babd	-0.11852024
16	0x3d0e2f88	0.034713298
17	0xbd70473a	-0.058661677
18	0x3dd74c0a	0.1051255
19	0xbdaff646	-0.08591895
20	0xbda1749b	-0.07883569
21	0x3d7b721f	0.06138813
22	0xbe574d4a	-0.21025577
23	0x3e0f6d7f	0.14006613
24	0x3b85b146	0.0040799705
25	0xbda6c613	-0.081432484
26	0x3e18a9b7	0.14908491
27	0x3e1fa9bf	0.15592097
28	0x3e54bb85	0.20774658
29	0x3cbfc9b3	0.023411607
30	0x3dd8ed10	0.10592091
31	0xbe2f3f3f	-0.1711397
32	0xbe17d2e5	-0.14826544
33	0x3e10c8fe	0.14139172
34	0x3d21c22f	0.03949183
35	0xbd60c696	-0.054876886
36	0xbdcc5d35	-0.09978715
37	0xbbf5177d	-0.0074796067
38	0xbe4992d8	-0.19684923
39	0xbe242c42	-0.16032508
40	0x3e11521e	0.14191481
41	0xbe1567d0	-0.14590383
42	0xbc4bc6d7	-0.012437544
43	0x3df5fed9	0.12011499
44	0x3e2d3f5d	0.16918702
45	0x3dcb2e6b	0.09920963
46	0x3de3176a	0.1108845
47	0x3e4f4b77	0.20243631
48	0xbd8b1ecb	-0.06792983
49	0x3d9099d8	0.07060593
50	0x3e32c2fb	0.17457192
51	0x3d41213f	0.047150847
52	0x3e1b29a8	0.1515261
53	0xbddf2da4	-0.10897377
54	0x3d8a7e4a	0.06762369
55	0xbcd92c2d	-0.026510322
56	0xbdcc7690	-0.099835515
57	0xbe668dca	-0.22515026
58	0x3c8f353f	0.017481444
59	0xbe241918	-0.16025198
60	0xbe26554f	-0.1624348
61	0xbe2ebc41	-0.17064
62	0x3e2e7220	0.17035723
63	0xbd8b8c6e	-0.06813894

network.18.bias f4 [2]
0	0xbd3f955a	-0.046773292
1	0x3d384d55	0.044995625
